weight/best.pt (torch, 30300 bytes, 8 tensors)

fc1.weight f4 [32, 15]
000000 0a 19 cc 3d 32 f3 5d 3e d8 76 25 be 42 b2 81 3e
       0.09965713 0.21674803 -0.16158617 0.25331312
000010 d1 72 34 bc 7e f9 25 be 9c 75 a5 3d d2 54 33 3e
       -0.0110137025 -0.16208455 0.08079073 0.17512825
000020 81 fa d4 3d 3b 35 45 be 5a e4 38 be 7e c9 ec bc
       0.10399342 -0.19258587 -0.18055859 -0.028904673
000030 84 ad 8b 3d 9c d1 8d 3d 54 45 60 3e b0 93 82 be
       0.06820205 0.069247454 0.21901447 -0.25503302
000040 94 0a f8 3d 3e eb 0a be 66 6c 1e 3d e5 77 b7 3d
       0.121113926 -0.135663 0.038677596 0.08958415
000050 13 4a 84 3d 98 92 12 be 18 56 0b 3e 6f 2e 17 be
       0.06459441 -0.14313734 0.13607061 -0.14763807
000060 44 6b b5 bd d9 19 4f be f5 ce 05 3d 01 d8 9f 3c
       -0.0885835 -0.20224704 0.032668073 0.019512178
000070 bb 82 74 3e 00 27 09 be 14 75 76 be bf 45 7a be
       0.23877995 -0.13393784 -0.240681 -0.24440669
000080 18 71 60 3d 26 9b 79 3e d0 53 2a be 7e 32 5b 3d
       0.054795355 0.2437559 -0.16633534 0.05351495
000090 bb b4 f0 bd 06 63 c1 3d 0f 05 4e be f5 4e 4d be
       -0.117532216 0.09442715 -0.20119117 -0.20049651
0000a0 7f 72 63 be 38 cf ee 3d e6 4d e4 3b a5 3a d0 bd
       -0.22211646 0.116606176 0.006967294 -0.101674356
0000b0 03 00 5a 3c 95 c2 35 bd 51 53 83 3e 54 23 17 3e
       0.013305667 -0.04437502 0.25649503 0.1475957
0000c0 a7 27 50 bd 6d b3 20 be eb e3 fc bd 9b 30 d4 3d
       -0.050819065 -0.15693446 -0.123481594 0.10360833
0000d0 ec c1 5f be 9c c9 04 3a 5f 56 a6 bd de 00 5f 3e
       -0.21851319 0.00050654425 -0.08121943 0.21777675
0000e0 06 69 a0 bd 5a 43 3c 3e aa ba 40 bd d6 35 81 3d
       -0.07832532 0.18385068 -0.047053017 0.063090965
0000f0 1b 50 38 3e 0c e1 de bd a3 1f 2b 3d 99 b7 b5 bd
       0.17999308 -0.10882768 0.041778218 -0.08872909
000100 94 f6 b8 bb 09 aa a8 3d 7a cd 51 3e 79 87 4c 3e
       -0.005644629 0.08235557 0.2048854 0.19973554
000110 a5 8a c6 bd 86 5e 6c bd 25 f0 17 3d b3 fb 9b bd
       -0.09694413 -0.057707332 0.037094254 -0.07616367
000120 eb 56 7a be 53 fd 21 be fd 5b aa bd 6f d7 73 be
       -0.24447219 -0.15819292 -0.083183266 -0.2381265
000130 e0 45 43 3d ac 6f d7 bd ee 61 4b 3e a6 06 73 be
       0.04767406 -0.105193466 0.19861576 -0.23733005
000140 b9 db 8e bc c5 7e 25 bd 28 01 a4 bd 8b 97 32 3e
       -0.017438756 -0.0404041 -0.08008033 0.17440622
000150 58 39 4e 3d 3f 3a b8 3d 8a bb 60 bd 64 f0 e5 3c
       0.050347656 0.089954846 -0.05486635 0.028068729
000160 a9 a0 10 be af 30 bd bd 01 2e b1 3d dc 98 1f bc
       -0.14123787 -0.09237801 0.08651353 -0.009741034
000170 b4 0e 33 3e 4e 59 64 be c0 f9 f4 3c 48 ae d3 3d
       0.17486078 -0.22299692 0.029904246 0.10335976
000180 20 87 34 3e 16 1e 91 bd 47 56 1d bd e6 08 7e bd
       0.17629671 -0.070858166 -0.03841236 -0.062020205
000190 c9 8b 2f bd 1e f9 d4 3d 45 75 ae 3c 52 d1 0f be
       -0.04285792 0.10399078 0.021296153 -0.14044693
0001a0 93 be 39 3e f3 c5 3e be 3e 45 a8 3d a7 22 a3 3d
       0.18139105 -0.18630199 0.08216332 0.07965594
0001b0 e3 c5 53 3e e2 cc ed bd 24 13 04 be e9 7f 6f be
       0.20680957 -0.11611344 -0.12897927 -0.23388638
0001c0 d6 8a 73 3e de 29 1c be ea c6 4c 3d 9a 82 d5 3c
       0.2378343 -0.15250346 0.049994387 0.026063252
0001d0 ef ed ad bd a8 5c d6 bc 8e 44 8b 3d be 00 90 3d
       -0.08492648 -0.026167229 0.06800185 0.070313916
0001e0 8d 69 6d 3e a0 9d b7 3a a9 9b 92 bd 97 56 79 be
       0.23184796 0.0014008768 -0.07158596 -0.24349438
0001f0 f2 14 38 3d b5 07 5d 3d d0 35 a4 bc fd a0 56 3e
       0.04494185 0.053962428 -0.020045191 0.2095985
000200 2b c6 52 be 14 37 5b be 4c b5 b7 bd 93 22 84 be
       -0.20583408 -0.2140773 -0.089701265 -0.25807628
000210 d5 d1 4d be 2a 54 6c 3d bc 3c e1 bd c8 30 72 bc
       -0.20099576 0.057697453 -0.10997912 -0.014782138
000220 ee a7 1b be 1e 7c 8f 3d 7a 57 54 be d1 fa 3b 3d
       -0.15200779 0.07006095 -0.20736495 0.045893494
000230 f0 07 68 3e 32 c2 99 3d 57 7b b5 bc 58 ab fd 3b
       0.22659278 0.07507743 -0.02215354 0.007741373
000240 17 07 27 be 55 1e 18 3c 48 8c cb bd b7 1a 88 3d
       -0.16311298 0.0092845755 -0.09938866 0.066457205
000250 99 58 39 3e 1b e7 6d be 13 fc c2 3d 7a db 26 bd
       0.18100204 -0.23232691 0.095207356 -0.040736653
000260 b6 18 ea bd 46 94 4d bd 07 f8 f2 bd fe bd 5b be
       -0.114304945 -0.050190233 -0.11863714 -0.21459195
000270 bb 41 b9 3d e9 48 97 3d 94 07 78 3d 87 18 57 be
       0.0904574 0.073869534 0.060554102 -0.2100545
000280 69 07 3e 3e 71 8b 5e be fe 10 1b be f8 31 a7 bd
       0.18557514 -0.2173288 -0.15143201 -0.08163828
000290 02 e1 83 3e 67 d5 49 be a8 dd 55 be 67 99 43 3e
       0.25757605 -0.19710313 -0.20885336 0.19101487
0002a0 c0 2b 7f 3e 35 36 82 bc ee 80 69 be 0d 59 10 be
       0.24919033 -0.015894989 -0.22803089 -0.1409647
0002b0 5e d3 6c be 34 4b 1f 3e 05 15 e4 bc 13 68 4b 3d
       -0.23127505 0.15556031 -0.027842054 0.0496598
0002c0 3b fe 1f 3e 64 b5 db 3d 61 4b 7d be 74 58 0f 3e
       0.15624325 0.10727957 -0.24735786 0.13998586
0002d0 67 7d 82 3e f9 33 29 3e 81 a1 d1 3d e8 3a 6f 3e
       0.254863 0.16523732 0.102358826 0.23362315
0002e0 6b bc 12 be 7d 63 89 bd 17 a1 c2 3d 77 bc 81 be
       -0.14329688 -0.06708429 0.09503382 -0.253391
0002f0 34 03 43 3d 3a 37 c9 3c 97 5b 51 bc be 7f 33 bd
       0.047610477 0.024562467 -0.012778184 -0.043822996
000300 b6 5a 1c be 01 90 eb 3d 85 6c 1c be c5 c5 e6 3d
       -0.15268978 0.11502076 -0.15275772 0.1126819
000310 d1 ee 53 be 86 41 fe bc 37 6f 7f 3d 2b 08 dd 3d
       -0.2069657 -0.031037103 0.062361922 0.107925735
000320 23 0f 82 3e 3d 56 7f 3b ec f9 82 3d 31 53 80 3e
       0.25402173 0.0038961314 0.06395325 0.2506347
000330 4e 5e ef 3d 2f 35 1d 3e b9 50 d4 bc 62 4b 73 3e
       0.11687909 0.15352319 -0.025917398 0.23759225
000340 61 1e 7b be 9b b7 7c be db e3 04 be d7 ac 59 3e
       -0.24523307 -0.24679415 -0.12977545 0.2125734
000350 83 09 16 be 65 fd 75 be dd 32 fa 3c a5 b4 64 be
       -0.14652066 -0.24022444 0.030541832 -0.22334535
000360 95 43 a8 3d 41 79 60 3e aa ef 38 3e 30 db 0a be
       0.08216015 0.21921255 0.18060175 -0.13560176
000370 36 05 28 3e a4 f0 13 3e 30 96 68 be da f7 02 bd
       0.16408238 0.14447266 -0.22713542 -0.03197465
000380 a4 3a 6d 3e cb 8b 92 bd c3 99 78 3e 2c 2b b0 bc
       0.23166901 -0.0715557 0.24277405 -0.021504961
000390 d5 f8 95 3c ca 11 a7 3d a9 a1 49 be 51 78 56 be
       0.018307129 0.0815769 -0.19690575 -0.20944335
0003a0 ea af 48 3c 6e f0 62 bc fa 0d f7 bd 0c 06 0c 3d
       0.012248972 -0.013851268 -0.12063213 0.034185454
0003b0 09 6d 38 be 31 b1 54 3e 82 14 6a 3e 15 1b 3d be
       -0.18010344 0.20770718 0.22859386 -0.18467362
0003c0 cb b5 27 3e 05 be 97 3b d1 d3 67 be f9 4f 91 3b
       0.16377942 0.0046308064 -0.22639395 0.0044345823
0003d0 a2 7d e9 bd 73 cc 0a 3d 8a c6 26 3e 15 a1 40 3d
       -0.11400916 0.033886384 0.16286674 0.04702862
0003e0 87 37 b1 3d 9d 0f f1 3d 39 63 14 bd ee 5a b9 3d
       0.08653169 0.11770556 -0.03622744 0.090505466
0003f0 eb e0 7e 3c 7a b9 49 be d1 0e f6 3b 12 ee 5c 3c
       0.015556554 -0.1969966 0.0075090905 0.013484495

fc1.bias f4 [32]
000000 3c e0 74 be 97 21 0e 3e 62 27 6e 3e f9 8f 87 bd
       -0.23913664 0.13880001 0.23257211 -0.066192575
000010 af 58 1a 3e 94 e3 40 be 96 c6 17 be 18 46 11 3e
       0.15072893 -0.18836814 -0.14821848 0.14186895
000020 d4 ac 5e bd d2 21 11 bd ff 95 a5 bd 0c 94 07 3d
       -0.05436404 -0.035432644 -0.0808525 0.033100173
000030 af c1 66 bd cb cb 28 3e 30 b6 62 be 3b 8e 5b 3e
       -0.056337055 0.16483991 -0.22139812 0.21440975
000040 fd a1 60 be f6 e2 3a be c4 5e aa 3d fd 34 20 3d
       -0.21936794 -0.18250641 0.08318856 0.039113034
000050 61 f1 3f 3e 66 25 5d be cf 60 79 be 06 df 1b be
       0.18744422 -0.21596298 -0.24353336 -0.15221795
000060 f8 54 28 3e 1a f8 3e be c0 19 e6 3d e7 56 79 bd
       0.16438663 -0.1864933 0.1123538 -0.060873892
000070 00 12 77 be 0d 0d 5c 3e 7b d2 bc bd a2 bb 00 3d
       -0.2412796 0.21489353 -0.092198335 0.03142894

fc2.weight f4 [64, 32]
000000 21 80 23 3e e6 fc db 3d 58 69 55 3d a1 da e6 3d
       0.15966846 0.10741596 0.052102417 0.11272169
000010 f7 e9 fc 3d e8 3f d1 bd 72 c2 fc bd 09 de 3e 3d
       0.12349313 -0.10217267 -0.12341775 0.046598468
000020 a1 b0 a7 bc 47 f1 c8 3d 8d 48 9f 3b a9 d8 bf 3d
       -0.020469965 0.09811645 0.0048609436 0.093674965
000030 0c 82 61 3c 90 98 3c bd 78 e5 e2 bd 74 a7 c3 3d
       0.013763916 -0.046043932 -0.11078924 0.095534235
000040 16 d5 c5 3d 98 32 c5 3c 24 17 27 3d 07 7c 15 3e
       0.096597835 0.024071977 0.040793553 0.14598094
000050 bf 31 b6 3d b9 b4 ae 3c 97 e8 e6 3d b3 aa 33 be
       0.08896207 0.02132641 0.11274832 -0.17545585
000060 bb a8 ff 3d fe 49 f2 3a 3d c5 19 3e f5 af cb bd
       0.12483355 0.0018485186 0.15016647 -0.099456705
000070 45 3c 30 3e 67 0a 06 be 61 da c7 bd ef 08 8e bc
       0.17210491 -0.13089906 -0.09758449 -0.017338244
000080 d5 f3 e5 bd 5e 6f 68 bd 40 4a 1b 3d 35 c7 bd bd
       -0.11228148 -0.056746833 0.037912607 -0.09266511
000090 fe c2 2b 3e f0 7e 0a 3e 28 41 50 3d 9e d3 06 be
       0.16773602 0.13524985 0.050843388 -0.13166663
0000a0 b3 21 63 3d cd d2 d1 bd 44 74 2a 3c 97 20 d3 3d
       0.05545206 -0.10245285 0.010403696 0.103089504
0000b0 34 a8 31 3d 70 d4 06 3e 6f 88 00 be 14 9b 00 3e
       0.0433733 0.13166976 -0.12552045 0.12559158
0000c0 8a e7 22 be d7 d5 c0 bd 4e 4f 1c 3d 0d 3e 02 bd
       -0.15908638 -0.09415787 0.03816157 -0.031797457
0000d0 cf fa 73 bd 3d b6 1e 3e b6 13 a8 3c c2 98 3d bd
       -0.05956536 0.15499206 0.020517211 -0.04628826
0000e0 5f a6 d0 bd 15 ce 38 3d ce 58 9c bd bc 11 ca 3d
       -0.10187983 0.04511841 -0.07634126 0.09866664
0000f0 3b 54 cd bd 93 cc 24 3d a1 86 12 3e c7 f1 b9 bd
       -0.10025831 0.04023416 0.1430917 -0.090793185
000100 34 9e 18 bd 6a ad 0e 3e 61 f1 72 bd 95 e0 22 be
       -0.03726025 0.1393334 -0.059312228 -0.15905984
000110 07 ca eb 3d 83 f4 39 3d 0a 9f f0 bd 2e 5e ed 3d
       0.11513143 0.0453992 -0.11749084 0.11590229
000120 af 73 49 bc 12 a3 11 be 79 70 10 3e b5 de 25 be
       -0.0122956475 -0.14222363 0.14105405 -0.16198237
000130 9f 68 e7 3c cb 98 23 be fe 3a 6e bd d5 f9 25 bd
       0.02824813 -0.15976255 -0.058161728 -0.04052146
000140 77 df 88 bd 9b 9d 00 3d c6 10 f8 3d a3 71 aa 3d
       -0.066832475 0.031400304 0.12112574 0.08322456
000150 95 00 23 be 6b 32 9b 3c cc 65 b3 3d f7 1b de 3d
       -0.15918191 0.01894494 0.087596506 0.108451776
000160 4a b7 0a be 63 5f 49 bd ca 97 9b 3d 10 84 bf bd
       -0.13546482 -0.049163233 0.07597311 -0.09351361
000170 91 92 aa bb c3 b4 b6 3d 08 95 d9 bc d5 0e 0b be
       -0.0052054604 0.08921196 -0.026560321 -0.13579877
000180 60 38 2c 3e 34 d2 e0 3c 03 f2 1b 3d 1f a4 0b 3d
       0.1681838 0.027443983 0.038072597 0.034092065
000190 95 8a 2a 3d ff bc d6 bc a2 7f be bd 26 93 d9 3d
       0.04163607 -0.026213167 -0.09301688 0.106237695
0001a0 9a 18 e6 3c 50 c7 2b 3e 6f c6 2f be 41 1c 19 3e
       0.028087903 0.1677525 -0.1716554 0.14952184
0001b0 a5 9c 27 3e 20 3e 17 3e 2b 82 87 3d 2d 1c 5f bd
       0.16368349 0.14769793 0.066166244 -0.05447023
0001c0 5e 8f a6 bd e4 23 bf 3d df 91 f2 3a 54 32 2c be
       -0.08132814 0.093330175 0.0018506608 -0.16816074
0001d0 d6 9e ae bd 80 ce 87 bd d1 b0 94 bd 6d 30 6a 3d
       -0.08526389 -0.066311836 -0.072602876 0.05717509
0001e0 71 f9 3a 3d 4b b1 3c 3d c0 1e 2b be 64 db 25 3e
       0.045648042 0.046067517 -0.16710949 0.16196972
0001f0 7c 03 a4 3d ba 32 e0 3d a7 e9 93 3d e1 2b 8c 3d
       0.08008477 0.10947175 0.072223 0.06844307
000200 55 77 98 bc 2f e6 57 bd 2f 6c 25 bc 9c 4d 11 3e
       -0.01861159 -0.052709755 -0.010096594 0.14189762
000210 53 f0 03 3d 51 e8 02 be f7 ac c3 3d 35 a7 28 bd
       0.032211613 -0.12783934 0.09554475 -0.041175086
000220 bd c9 80 3b dd 47 30 be 82 96 24 3e f5 1f 98 bb
       0.003930299 -0.17214914 0.16073039 -0.0046424814
000230 70 4d 42 bd b7 10 a0 3d d1 b8 69 38 95 c6 80 bd
       -0.04743713 0.07815688 5.5723653e-05 -0.062878765
000240 9a 31 00 be d5 74 8b 3d 2c 15 f3 bd 78 af 13 3e
       -0.12518921 0.06809393 -0.118692726 0.14422405
000250 3f e2 4f 3d 54 c4 2a ba a9 47 ba 3d b0 61 2c 3e
       0.050752874 -0.00065142405 0.09095699 0.1683414
000260 41 27 89 3d 0e 39 bf 3d 44 f7 26 be 13 b3 2e 3e
       0.0669694 0.09337054 -0.16305262 0.17060499
000270 2d be cb 3d 2f 8d 04 3e 8a 5f 16 3e 44 14 80 bd
       0.099483825 0.12944482 0.14684883 -0.06253865
000280 99 77 c8 3c b9 26 9e bc b5 14 17 3c de 01 11 bc
       0.024471091 -0.019305574 0.009221246 -0.008850543
000290 89 2d f3 bd 53 68 1f bd 4c 53 e7 bd 94 21 00 bd
       -0.118739195 -0.03891785 -0.112951845 -0.031282023
0002a0 45 4b 28 be d3 8e 0b be cb 9c 8c 3d 40 fd 60 3d
       -0.16434963 -0.13628702 0.068658434 0.054929018
0002b0 f7 77 f0 bc 21 0b 9d bd 32 8f f9 bd 8a ac e0 3d
       -0.029354079 -0.07668138 -0.121855155 0.10970409
0002c0 8a 24 17 3e 6f 83 89 3d d6 9a 23 3e 6c 2e e4 3d
       0.14760032 0.06714522 0.15977034 0.11141667
0002d0 61 9d 30 bc aa bf 88 3c d5 8a 00 3e 88 93 30 be
       -0.01077971 0.016692955 0.1255296 -0.17243779
0002e0 57 cd c7 bd ef a4 d4 3d d4 81 26 3e 7f 4a cb 3d
       -0.09755962 0.10383021 0.16260463 0.099263184
0002f0 00 63 f7 bd 0e e4 06 be b3 c8 aa bd 56 10 e6 bc
       -0.120794296 -0.13172933 -0.083390616 -0.028083961
000300 88 c4 69 3c 8d 01 8e 3c e3 ae 06 3e 44 f3 0a bd
       0.014268048 0.017334724 0.13152651 -0.033923402
000310 87 39 af bc 23 48 f2 3c 53 2f 90 3d 21 e5 0c 3c
       -0.021389736 0.029575413 0.070402764 0.00859955
000320 3e 87 fd bd 2e 98 17 3e ef 63 87 3d 4b a5 21 bd
       -0.12379311 0.14804146 0.06610858 -0.039464276
000330 d2 c4 13 bd 52 d9 3e 3d 95 32 7d bc 5a af 0a be
       -0.036076374 0.04659397 -0.015453954 -0.13543454
000340 ba b3 ef 3c 62 30 c9 3c bd ef eb 3b 99 b2 33 3d
       0.029260505 0.024559204 0.00720021 0.043871496
000350 9d fb dc bd f3 eb ea bd 02 a5 2c be 8d df b8 bd
       -0.10790179 -0.11470785 -0.1685982 -0.09027014
000360 3c 89 11 be 41 f4 d8 bd 37 2c c0 bd 74 bd 19 be
       -0.14212507 -0.10593463 -0.09383433 -0.15013677
000370 d9 45 85 bd d3 05 2a 3e 5c d9 f2 3d c7 94 85 3d
       -0.06507463 0.16603784 0.11857864 0.06522518
000380 7b 40 95 bd 29 53 dd 3d 70 1f 86 3d d8 58 78 3c
       -0.07287689 0.10806877 0.06548965 0.015157901
000390 fe b1 0b 3e 6e 34 04 bd 56 2d d3 bd ec 6e 0b 3e
       0.13642117 -0.032276563 -0.103113815 0.13616532
0003a0 3a c7 e1 3d 2e 37 08 3e c7 29 8c bd 55 f9 8c 3d
       0.110243276 0.133023 -0.06843906 0.06883494
0003b0 41 70 71 3d e7 73 7c 3d a8 bb 1a be af 63 25 3e
       0.058944944 0.06163397 -0.15110648 0.16151308
0003c0 02 5c 28 3e aa 44 da bd ac 82 f9 3c 82 79 12 be
       0.16441348 -0.10657628 0.030457817 -0.14304164
0003d0 52 ad 2e be c5 f0 a9 3d d8 fc 2e 3d ef 6d bf 3d
       -0.17058304 0.08297876 0.0427216 0.0934714
0003e0 da e0 9a 3d f9 42 a4 3d 9d 86 41 3d 5b 0a c4 3d
       0.07562418 0.080205865 0.047247518 0.09572288
0003f0 26 e0 cc bd 3b cb d4 bd 38 f5 17 3e ae ca 62 3d
       -0.100036904 -0.10390326 0.14839637 0.05536907

fc2.bias f4 [64]
000000 ca 4b f0 3c ea 52 5a bd 4f ec 24 3e ca 75 cd 3c
       0.029333014 -0.05330173 0.1610577 0.02508058
000010 54 87 10 3d 43 97 27 be 47 9c ba 3d 1e 71 2a 3e
       0.03528531 -0.16366296 0.09111839 0.16644713
000020 4b 46 ff 3c b2 e3 71 bd 40 87 e8 bd 5d 2e f1 3d
       0.031161448 -0.059055038 -0.11353922 0.11776421
000030 09 7c 7e 3d 1f f5 c8 bd ff 9e 92 bb 67 6b da 3d
       0.062130008 -0.09812378 -0.00447452 0.106650166
000040 e7 89 10 3e 39 c5 8c bd 74 be ab bd c9 50 21 be
       0.14115106 -0.06873555 -0.083859354 -0.15753473
000050 2c dc 10 be 64 1c d0 3d 72 8c ed bd eb ba 80 bd
       -0.14146489 0.10161665 -0.115990534 -0.06285652
000060 2c b6 1a be c7 97 d4 bd 8e 89 11 3e 13 76 77 3d
       -0.15108556 -0.10380512 0.14212629 0.06041534
000070 fe 30 23 bd 92 91 1c be 85 c4 9a 3c 63 06 1c be
       -0.039841644 -0.15289906 0.018892536 -0.15236811
000080 d1 b6 80 3d 85 b3 0e 3e 87 16 b9 bd b0 01 dd bd
       0.062848695 0.13935669 -0.090375 -0.107913375
000090 2c d1 93 bc d7 46 83 bd 7c 4b 25 be d2 6e 2f 3d
       -0.018044077 -0.06409996 -0.16142076 0.042830296
0000a0 c5 cd b2 bd 5a 2c 5c bd 7a 9c ba bd 81 4f 0a be
       -0.08730654 -0.053753234 -0.09111877 -0.13506891
0000b0 0d 88 9e 3d e3 fa f5 bd 31 cf c6 bd 77 ce 11 3e
       0.077407934 -0.120107435 -0.097074874 0.14238916
0000c0 7d 60 0f 3e 34 bd bf 3d 26 66 26 3c e0 28 a2 3d
       0.14001651 0.093622595 0.01015619 0.079179525
0000d0 9e 95 29 3e 66 25 9e bc e0 a5 f2 3d da a3 25 3e
       0.1656098 -0.019304942 0.118480444 0.16175786
0000e0 09 b7 a3 bd 3c ff 56 3d 4b b1 28 be ef e1 23 be
       -0.079938956 0.052489504 -0.16473882 -0.16004156
0000f0 2c cc 7e 3c 97 40 85 bd 0d cf 47 3d 9a 7e 2b 3d
       0.015551608 -0.0650646 0.048781443 0.041868784

fc3.weight f4 [64, 64]
000000 a3 94 e8 bd bc 4c d8 3d ee 70 6b 3b 5e 99 b5 3d
       -0.11356475 0.10561511 0.0035925466 0.08867143
000010 71 64 d7 bc cc 7c f5 bd c7 48 8f bd 5c 9e ee bd
       -0.026293011 -0.11986694 -0.06996303 -0.116512984
000020 63 61 7c 3d 22 20 ed 3d fd c4 56 3d 5e 7d 9d bd
       0.061616313 0.115783945 0.052433956 -0.076899275
000030 e3 eb 50 bd 06 5d c6 3d 00 29 5a 3c b9 45 43 bd
       -0.05100621 0.096857116 0.013315439 -0.047673915
000040 3b db 58 bd 6c b2 eb bd 72 a4 4b bd 45 5e 2b bc
       -0.05294345 -0.11508641 -0.049717374 -0.010459487
000050 f7 e8 a7 bd 40 d7 f8 3c 54 70 d1 3d a8 17 f9 3b
       -0.081987314 0.030376077 0.10226503 0.007601697
000060 c0 f6 83 3d c8 ba e2 3d c6 04 cb 3c ec 10 53 bd
       0.06443548 0.11070782 0.02478255 -0.05152981
000070 21 e6 26 3d 2e ec b9 bc 50 c0 4c bc 24 c6 82 bd
       0.04074681 -0.022695627 -0.012497023 -0.063854486
000080 e2 80 f8 bd b9 74 f1 bd 41 f6 88 3c 65 4a e2 bd
       -0.121339574 -0.11789841 0.016718986 -0.11049346
000090 be f9 b1 bd bc a9 ee 3d 0d 2c f1 3d d5 23 12 3c
       -0.08690213 0.11653468 0.1177598 0.008919676
0000a0 89 cd 83 bd ae de b7 bd 8a f2 f0 bd 50 be 2a 3d
       -0.06435687 -0.0897802 -0.11765011 0.041685402
0000b0 de 3f cb bd 78 f5 92 3d a0 bb 8b 3d 40 ae 45 3d
       -0.09924291 0.07175726 0.06822896 0.04826188
0000c0 11 1d ba bd 09 07 05 3c f7 e9 c6 bd 99 f2 6e bd
       -0.09087575 0.008119353 -0.09712594 -0.058336828
0000d0 69 c1 a5 3c 06 6c c3 3d fb e9 4c 3c 81 2b 66 3d
       0.020233827 0.09542088 0.012506957 0.056193832
0000e0 c8 b6 98 bd d7 e7 ef 3c 73 11 e7 bd 58 b2 fa 3d
       -0.07456738 0.029285355 -0.11282625 0.122410476
0000f0 21 0d 8d bc c5 a5 d9 3d 8e 40 b3 3d 86 2b 8e bd
       -0.017218174 0.10627321 0.08752547 -0.06941895
000100 10 63 51 bd d0 c4 64 3c 62 cb 89 bd d8 e7 6b bd
       -0.051119864 0.013962939 -0.06728245 -0.05759415
000110 fa a7 9d bd f8 13 c9 3d 98 a4 cb bd 3c f2 af 3d
       -0.076980546 0.09818262 -0.09943503 0.085911244
000120 84 06 b2 bd 9c d7 c0 3d 00 3c fa ba 2c db 09 bd
       -0.08692649 0.09416124 -0.0019091368 -0.033656284
000130 d0 17 02 3d 16 d4 97 3d f0 9e 65 bc 14 bd 31 3d
       0.03176099 0.07413499 -0.014014944 0.04339321
000140 00 42 49 3c c0 55 d7 bb 40 2e f8 bd 2c 7d 01 3d
       0.012283802 -0.0065715015 -0.121181965 0.031613514
000150 ec e9 a8 bd 24 93 1a 3d 64 33 fb bd ba 7a c0 bd
       -0.08247742 0.03773798 -0.12265661 -0.09398408
000160 10 44 0d bc e8 15 fa 3d 78 43 a5 3c 30 d5 03 bc
       -0.008622184 0.122112095 0.020173773 -0.008046433
000170 00 72 f7 b9 1c 5e 48 bd 82 8e ce bd 04 01 37 3d
       -0.00047196448 -0.048917875 -0.10085775 0.044678703
000180 9e ee f7 3d 40 bf 37 bd a0 41 34 bc b8 6d cd bd
       0.121060595 -0.044860125 -0.011001974 -0.10030693
000190 90 83 d3 bd ee bf ba 3d 8c b3 89 3d 40 9d 43 bb
       -0.10327828 0.09118639 0.06723699 -0.0029848367
0001a0 ce 7a ea 3d 80 77 bc bc a0 04 fb 3d d4 df a9 3d
       0.114492044 -0.0230062 0.122567415 0.08294645
0001b0 1a 93 fa bd a0 d1 e1 3c ac 95 09 3d 08 b4 cf bc
       -0.12235089 0.027565777 0.033590004 -0.0253544
0001c0 2c 51 64 3d fc 62 9f 3d f0 bc fa 3c 60 18 64 bc
       0.055741474 0.07782552 0.03060767 -0.013921827
0001d0 98 bb f0 3c 50 42 60 3c e0 24 85 bb 22 08 99 3d
       0.029386327 0.013687685 -0.0040632337 0.07472254
0001e0 d6 94 c5 3d c0 ea 87 bd e4 28 c3 bd e0 7d 8c bd
       0.09647529 -0.06636572 -0.09529284 -0.06859946
0001f0 c8 e4 1e 3d d4 01 6d bd 7c cb 0b bd 6c d9 db bd
       0.0387924 -0.05786307 -0.034129605 -0.10734829
000200 e3 68 cf bc 1c d3 08 bd 25 49 e6 3d 44 b4 f9 bd
       -0.025318569 -0.033404455 0.1124442 -0.12192586
000210 2f f0 a6 bd 98 2e b6 bc 80 d3 07 3d 0c 7d 9f bd
       -0.0815128 -0.022239015 0.033160686 -0.07787523
000220 5d 0e 78 bd 96 b3 a9 bd ce 23 18 3d 95 e5 2a 3d
       -0.060560573 -0.082862064 0.03714352 0.041722853
000230 50 e0 ec bc b0 16 2e 3c 48 64 88 3d 3d 69 cc 3c
       -0.028915554 0.010625526 0.06659752 0.024952525
000240 b4 b8 97 bd 08 b2 0f bd 48 67 a9 bc dc ca 9d bd
       -0.07408276 -0.035081893 -0.020679131 -0.07704708
000250 94 7a 69 bd 5a 87 fe 3d e5 e6 ca bd 0c 87 ea 3d
       -0.057001665 0.1242816 -0.09907321 0.114515394
000260 c8 98 bd 3c 18 54 d8 bc b7 c7 d0 bc 7e fc ec 3d
       0.02314414 -0.026407287 -0.025485856 0.115715966
000270 f2 43 50 bd 07 21 8d 3d 26 9d c3 3d b7 45 c3 3d
       -0.050846048 0.06891065 0.09551458 0.095347814
000280 0d 97 ff 3c e7 8c f8 bd 86 b8 83 3c 95 7b c6 bd
       0.031199956 -0.1213625 0.016079199 -0.0969154
000290 38 e9 5f 3d 80 f1 05 3b 5e cd 09 bd 00 eb bb 3d
       0.054665774 0.0020438135 -0.03364312 0.09175682
0002a0 74 ef 84 bd b8 9c d3 3c 20 4e 44 bd d7 79 e9 bc
       -0.064909846 0.025831565 -0.04792607 -0.02850048
0002b0 9c 68 f5 bd e2 f9 f3 3d 70 39 96 3c ef e0 55 bd
       -0.11982843 0.11912896 0.018337935 -0.052216467
0002c0 16 c1 7a 3d ca 2f 2a bc 8f bd ee 3d 24 92 82 bd
       0.061219297 -0.01038737 0.11657249 -0.0637553
0002d0 60 f2 f1 bd 16 a0 fa bd e5 ee 80 3d c9 58 ed bd
       -0.118138075 -0.12237565 0.062955655 -0.115892
0002e0 78 6a 8c bd f3 9f f1 3d 94 0d 86 3d 32 61 cd 3d
       -0.06856245 0.11798086 0.065455586 0.10028304
0002f0 48 22 45 bd 6c 07 c9 bd 40 81 70 bd d1 b2 e8 3d
       -0.048128396 -0.09815869 -0.058717012 0.113622315
000300 e8 b7 f2 3d 74 83 a4 bd f7 36 88 3d 11 51 a7 bd
       0.118514836 -0.08032885 0.06651109 -0.08169759
000310 4f 1f e9 bd c0 87 82 3d 54 e5 db bc e6 2d e6 bd
       -0.11382925 0.063735485 -0.02684275 -0.11239223
000320 66 13 80 3d 02 6a b2 3d b7 9f 5f bd 7f 8c 99 3d
       0.062537 0.08711626 -0.054595675 0.07497501
000330 42 c5 86 3d 5c 7e 78 3d 94 fb 05 3d 1a 8f b1 bd
       0.06580593 0.06066738 0.032710627 -0.086698726
000340 8b bb cb 3d 98 93 6d 3d bf 13 8b 3d 81 b6 12 3d
       0.0994788 0.058002084 0.06790876 0.03581858
000350 6e fd a9 bd 60 df 5f 3c 8b bc ce 3d 46 af f9 bc
       -0.08300291 0.013664097 0.100945555 -0.030479085
000360 da 3f 96 3d 2e 8b cf bd 88 d5 20 3d a0 3c 26 bd
       0.073363975 -0.10133968 0.03926614 -0.04058516
000370 3e f3 2a bd a2 c5 e0 bd 38 d2 b7 3d 13 3c 9e 3d
       -0.04173588 -0.109751955 0.08975643 0.07726302
000380 cf 1f 51 bd 33 66 97 bd 10 f9 ae 3c 31 a1 10 3d
       -0.051055726 -0.0739254 0.021358997 0.035309974
000390 ac bd 51 3d a0 ea bb 3d 48 d4 cc 3d 68 79 fd bd
       0.051206276 0.091756105 0.10001427 -0.12376672
0003a0 b3 25 d3 3d 4c 35 d7 3d 82 b6 f7 bd 1b c0 39 39
       0.10309925 0.105082124 -0.120953575 0.0001771454
0003b0 84 05 aa 3d 24 6f bc bd 30 3d b8 3c 95 60 4a bd
       0.08301833 -0.09200886 0.022490114 -0.049408514
0003c0 1b 5c 8d bc 2a 00 0f 3d 06 91 d6 3b d8 3c 60 3d
       -0.017255833 0.034912266 0.00654805 0.054745525
0003d0 38 ee 8e 3d 18 8c 16 bd cd 0a b0 bd 30 90 98 bd
       0.0697903 -0.036754698 -0.0859581 -0.074493766
0003e0 c8 39 a5 bd 81 f1 ca 3b d7 f6 92 bd ba 90 a7 3d
       -0.080676615 0.0061933403 -0.07175987 0.08181901
0003f0 cf 47 f7 bd d3 fc e5 3c a2 5e b7 bc 2c 32 2a 3d
       -0.12074243 0.028074658 -0.022383992 0.041551754

fc3.bias f4 [64]
000000 e4 b8 ba bd 50 a7 81 3c f0 d1 fc 3d a4 e8 b6 3d
       -0.09117296 0.015826851 0.1234473 0.089310914
000010 66 90 41 bd 85 86 87 3b f2 d2 31 3d c1 9e b8 3d
       -0.04725685 0.004135909 0.043414064 0.09014655
000020 f2 e5 a9 bd ff 7c 6d bd 40 47 39 bd 08 b9 02 3d
       -0.08295812 -0.057980534 -0.045233965 0.03191474
000030 a2 dd 41 3d f0 3c 97 3b c0 44 9e 3d 98 16 bf bd
       0.047330506 0.0046154186 0.07727957 -0.09330481
000040 00 28 e4 bd 83 80 98 bc 55 93 e1 3c 8e 5c 30 bd
       -0.11140442 -0.018615967 0.027536074 -0.043057017
000050 97 4d 15 bd 5f 1a a3 bb 02 f8 9a 3d 0f de 8f bd
       -0.03645095 -0.004977509 0.07566835 -0.07024776
000060 78 04 c8 3c f4 e4 36 bd e8 2f ca bc ec fc 60 3d
       0.024416193 -0.04465194 -0.024681047 0.054928705
000070 d7 30 f1 3d 15 ac 5d 3d 67 5a e9 3d 15 ee eb bd
       0.117768936 0.05411919 0.11394196 -0.1152002
000080 81 08 34 3d 5c 03 94 bd f8 85 00 3d 66 eb d3 3c
       0.043953422 -0.07227203 0.031377763 0.025869083
000090 1c b3 6e bd 88 9b 51 bd 6c 54 48 bd 51 8f e6 3d
       -0.05827628 -0.051173717 -0.048908636 0.11257804
0000a0 70 4c c9 bd 29 1d 8c bd b8 6f 8f bd 5e 78 f8 3d
       -0.098290324 -0.06841499 -0.070037305 0.12132333
0000b0 d0 88 ce 3d 00 4e cd bd 40 81 44 3b bb 48 35 bc
       0.10084689 -0.10024643 0.0029984266 -0.011064704
0000c0 37 65 f6 bd 64 88 82 3d 02 e4 d7 3d 52 67 b7 bd
       -0.12031024 0.06373671 0.10541536 -0.08955254
0000d0 16 a0 aa bc 21 b9 ad bd 10 67 db 3d c4 65 3c bd
       -0.020828288 -0.08482576 0.10713017 -0.04599549
0000e0 e9 c2 a6 3d 48 ff e8 bd 79 f2 80 bd c0 44 8f bc
       0.08142645 -0.11376816 -0.06296248 -0.017488837
0000f0 9a 44 f0 3d d8 28 be 3c 84 a2 8f 3c 59 99 41 bd
       0.11731835 0.023212835 0.017533548 -0.047265384

classify.weight f4 [2, 64]
000000 3a b8 30 bd 3c 48 4d 3d 4f 3b bc bd 94 31 06 bd
       -0.043144442 0.050117716 -0.09191 -0.032762125
000010 c9 2e a8 3b 33 5a ff bd 72 5c c4 3d 9f f4 bc 3d
       0.0051325304 -0.12468376 0.09587945 0.09226345
000020 c4 ca 5f 3c ea d8 70 3d 00 40 f2 3d ec fe b8 3d
       0.013659183 0.058800615 0.11828613 0.090329975
000030 47 a6 b3 bd 76 bb f3 bc 38 fb 2f 3d 2d 1d b3 bd
       -0.08771949 -0.029752474 0.04296419 -0.08745799
000040 58 1c 1b 3c e3 e7 93 bd 70 cc 6f 3d 2a a7 e9 3d
       0.009467207 -0.07221963 0.058544576 0.11408837
000050 d0 9b b4 bd 5e b0 82 bd 12 a8 ad 3d 87 0d a2 bd
       -0.088187814 -0.063812956 0.084793225 -0.079127364
000060 e3 6c 83 3d af af 9d bd d0 41 f6 3c e0 29 6b 3d
       0.06417253 -0.076995246 0.030060679 0.057412982
000070 d5 83 5d 3d 36 1f 75 3c b5 8a 13 bd be 48 b3 3c
       0.054080803 0.014961055 -0.036020953 0.021885272
000080 bf 41 53 bd 19 b1 93 3c 7d b9 96 3c da 1e f5 bd
       -0.051576372 0.018028783 0.018398995 -0.11968775
000090 ec 3b 7a bd 72 e8 a0 3b 6b 02 0a 3d 1e 0a 86 bd
       -0.061092302 0.004910522 0.033693712 -0.065448985
0000a0 08 b2 d9 bc d1 3c 7f bd e6 1c 86 3c 2c 9f 92 bd
       -0.02657415 -0.06231386 0.016371202 -0.07159266
0000b0 ec 3e f6 3c ec 76 04 bd 46 98 ac 3d 00 6e e4 3d
       0.0300593 -0.032339975 0.08427481 0.11153793
0000c0 16 36 9d bc 4f 30 87 bd 60 38 d2 bc b5 fe 94 3d
       -0.01919083 -0.06601011 -0.025661647 0.07275144
0000d0 9c 3c fd bd c9 38 5d bd bf 8e 4e 3d ea 73 c2 bd
       -0.12365076 -0.054009233 0.050429102 -0.09494765
0000e0 8a de 3e bd 1f a5 72 bd e5 0d e1 bc f0 f8 a0 bd
       -0.04659895 -0.059239503 -0.027472446 -0.07859981
0000f0 b1 ec 1c bd ee de b3 bd ee de 66 3d c4 72 1e bd
       -0.038311664 -0.08782755 0.056364946 -0.038683668
000100 9f 4c d5 3c 90 af b2 bc cd 73 9b bd 3f 7b c2 3b
       0.026037512 -0.02181223 -0.075904466 0.0059351022
000110 63 64 d4 3d 39 41 de bd 4b 94 2f 3d 79 d0 4e bd
       0.1037071 -0.10852284 0.042866033 -0.050491784
000120 06 f2 71 3d 27 d6 b9 bd 60 00 70 3d 6a f1 d4 3d
       0.059068702 -0.090740494 0.058594108 0.103976086
000130 fd ba f7 3c 54 20 67 bd 0c 8a 8d bd 56 b8 c6 bc
       0.03024053 -0.056427315 -0.06911096 -0.02425782
000140 36 98 7d ba 4d 52 01 be 6f 3e 98 bd 3d 34 6b 3d
       -0.0009673865 -0.12629052 -0.07433783 0.057422865
000150 f1 f9 a7 bd 48 d1 96 bd 64 3c 68 3d 9f a1 c6 bd
       -0.082019694 -0.07364136 0.056698218 -0.096987955
000160 02 1e 09 bd 3f 1c c8 bd aa fe aa bd bb b9 e1 bd
       -0.033475883 -0.097710125 -0.083493546 -0.110217534
000170 d4 70 2f bd 82 04 7a bd 87 67 cd 3d c6 38 fd 3c
       -0.04283221 -0.061039455 0.10029512 0.03091086
000180 06 0a a9 39 43 90 8e bd 1a 6c 04 bd 68 4f bb 3d
       0.0003224166 -0.069611095 -0.032329656 0.09146005
000190 40 ac 49 bd 4b f2 89 bd ab 29 0c 3d 1b 86 d1 bd
       -0.049236536 -0.06735667 0.034219425 -0.10230657
0001a0 a4 c8 c4 3d b9 0c bd 3d 92 e9 c5 bd 9b 3b 5e bd
       0.09608582 0.09230942 -0.096636906 -0.054256063
0001b0 0b 2b 23 3d a0 1d b8 3d 90 54 c4 3d 0c 67 04 3d
       0.03983597 0.089900255 0.095864415 0.032324836
0001c0 a0 1c fa bc 2d 26 57 ba 48 51 ad 3c 81 09 26 3d
       -0.030531228 -0.0008207288 0.021156922 0.040536407
0001d0 f7 e8 de bd e9 dc 5a 3d 2e 5e 11 3d 20 05 24 3c
       -0.10884278 0.053433333 0.035490207 0.0100109875
0001e0 42 b5 78 bd 16 47 b0 3d e7 56 4a 3d 80 c3 31 bb
       -0.060719736 0.086073086 0.049399283 -0.0027124584
0001f0 92 37 8a 3d 8b 62 4a 3d ea 51 49 3d 62 8c 09 bd
       0.067488804 0.049410384 0.049150385 -0.033581145

classify.bias f4 [2]
000000 9a 62 e6 3d a3 58 5d bc
       0.112492755 -0.013509902
